…
2024-03-25 20:06:40.080755: I tensorflow/core/common_runtime/gpu/gpu_device.cc:1883] Created device /job:localhost/replica:0/task:0/device:GPU:0 with 9614 MB memory:  -> device: 0, name: NVIDIA GeForce RTX 2080 Ti, pci bus id: 0000:b2:00.0, compute capability: 7.5
Model: "model"
__________________________________________________________________________________________________
 Layer (type)                Output Shape                 Param #   Connected to                  
==================================================================================================
 input_1 (InputLayer)        [(None, 859, 6)]             0         []                            
                                                                                                  
 custom_masking_layer (Cust  (None, 859, 6)               0         ['input_1[0][0]']             
 omMaskingLayer)                                                                                  
                                                                                                  
 conv1d (Conv1D)             (None, 859, 64)              448       ['custom_masking_layer[0][0]']
                                                                                                  
 batch_normalization (Batch  (None, 859, 64)              256       ['conv1d[0][0]']              
 Normalization)                                                                                   
                                                                                                  
 re_lu (ReLU)                (None, 859, 64)              0         ['batch_normalization[0][0]'] 
                                                                                                  
 conv1d_1 (Conv1D)           (None, 859, 128)             8320      ['re_lu[0][0]']               
                                                                                                  
 batch_normalization_1 (Bat  (None, 859, 128)             512       ['conv1d_1[0][0]']            
 chNormalization)                                                                                 
                                                                                                  
 re_lu_1 (ReLU)              (None, 859, 128)             0         ['batch_normalization_1[0][0]'
                                                                    ]                             
                                                                                                  
 conv1d_2 (Conv1D)           (None, 859, 1024)            132096    ['re_lu_1[0][0]']             
                                                                                                  
 batch_normalization_2 (Bat  (None, 859, 1024)            4096      ['conv1d_2[0][0]']            
 chNormalization)                                                                                 
                                                                                                  
 re_lu_2 (ReLU)              (None, 859, 1024)            0         ['batch_normalization_2[0][0]'
                                                                    ]                             
                                                                                                  
 max_pooling1d (MaxPooling1  (None, 1, 1024)              0         ['re_lu_2[0][0]']             
 D)                                                                                               
                                                                                                  
 dense (Dense)               (None, 1, 512)               524800    ['max_pooling1d[0][0]']       
                                                                                                  
 batch_normalization_3 (Bat  (None, 1, 512)               2048      ['dense[0][0]']               
 chNormalization)                                                                                 
                                                                                                  
 re_lu_3 (ReLU)              (None, 1, 512)               0         ['batch_normalization_3[0][0]'
                                                                    ]                             
                                                                                                  
 dense_1 (Dense)             (None, 1, 256)               131328    ['re_lu_3[0][0]']             
                                                                                                  
 batch_normalization_4 (Bat  (None, 1, 256)               1024      ['dense_1[0][0]']             
 chNormalization)                                                                                 
                                                                                                  
 re_lu_4 (ReLU)              (None, 1, 256)               0         ['batch_normalization_4[0][0]'
                                                                    ]                             
                                                                                                  
 dense_2 (Dense)             (None, 1, 36)                9252      ['re_lu_4[0][0]']             
                                                                                                  
 tf.reshape (TFOpLambda)     (None, 6, 6)                 0         ['dense_2[0][0]']             
                                                                                                  
 tf.linalg.matmul (TFOpLamb  (None, 859, 6)               0         ['custom_masking_layer[0][0]',
 da)                                                                 'tf.reshape[0][0]']          
                                                                                                  
 conv1d_3 (Conv1D)           (None, 859, 64)              448       ['tf.linalg.matmul[0][0]']    
                                                                                                  
 batch_normalization_5 (Bat  (None, 859, 64)              256       ['conv1d_3[0][0]']            
 chNormalization)                                                                                 
                                                                                                  
 re_lu_5 (ReLU)              (None, 859, 64)              0         ['batch_normalization_5[0][0]'
                                                                    ]                             
                                                                                                  
 conv1d_4 (Conv1D)           (None, 859, 64)              4160      ['re_lu_5[0][0]']             
                                                                                                  
 batch_normalization_6 (Bat  (None, 859, 64)              256       ['conv1d_4[0][0]']            
 chNormalization)                                                                                 
                                                                                                  
 re_lu_6 (ReLU)              (None, 859, 64)              0         ['batch_normalization_6[0][0]'
                                                                    ]                             
                                                                                                  
 conv1d_5 (Conv1D)           (None, 859, 64)              4160      ['re_lu_6[0][0]']             
                                                                                                  
 batch_normalization_7 (Bat  (None, 859, 64)              256       ['conv1d_5[0][0]']            
 chNormalization)                                                                                 
                                                                                                  
 re_lu_7 (ReLU)              (None, 859, 64)              0         ['batch_normalization_7[0][0]'
                                                                    ]                             
                                                                                                  
 conv1d_6 (Conv1D)           (None, 859, 128)             8320      ['re_lu_7[0][0]']             
                                                                                                  
 batch_normalization_8 (Bat  (None, 859, 128)             512       ['conv1d_6[0][0]']            
 chNormalization)                                                                                 
                                                                                                  
 re_lu_8 (ReLU)              (None, 859, 128)             0         ['batch_normalization_8[0][0]'
                                                                    ]                             
                                                                                                  
 conv1d_7 (Conv1D)           (None, 859, 1024)            132096    ['re_lu_8[0][0]']             
                                                                                                  
 batch_normalization_9 (Bat  (None, 859, 1024)            4096      ['conv1d_7[0][0]']            
 chNormalization)                                                                                 
                                                                                                  
 re_lu_9 (ReLU)              (None, 859, 1024)            0         ['batch_normalization_9[0][0]'
                                                                    ]                             
                                                                                                  
 max_pooling1d_1 (MaxPoolin  (None, 1, 1024)              0         ['re_lu_9[0][0]']             
 g1D)                                                                                             
                                                                                                  
 dense_3 (Dense)             (None, 1, 512)               524800    ['max_pooling1d_1[0][0]']     
                                                                                                  
 batch_normalization_10 (Ba  (None, 1, 512)               2048      ['dense_3[0][0]']             
 tchNormalization)                                                                                
                                                                                                  
 re_lu_10 (ReLU)             (None, 1, 512)               0         ['batch_normalization_10[0][0]
                                                                    ']                            
                                                                                                  
 dense_4 (Dense)             (None, 1, 256)               131328    ['re_lu_10[0][0]']            
                                                                                                  
 batch_normalization_11 (Ba  (None, 1, 256)               1024      ['dense_4[0][0]']             
 tchNormalization)                                                                                
                                                                                                  
 re_lu_11 (ReLU)             (None, 1, 256)               0         ['batch_normalization_11[0][0]
                                                                    ']                            
                                                                                                  
 dense_5 (Dense)             (None, 1, 4096)              1052672   ['re_lu_11[0][0]']            
                                                                                                  
 tf.reshape_1 (TFOpLambda)   (None, 64, 64)               0         ['dense_5[0][0]']             
                                                                                                  
 tf.linalg.matmul_1 (TFOpLa  (None, 859, 64)              0         ['re_lu_6[0][0]',             
 mbda)                                                               'tf.reshape_1[0][0]']        
                                                                                                  
 conv1d_8 (Conv1D)           (None, 859, 64)              4160      ['tf.linalg.matmul_1[0][0]']  
                                                                                                  
 batch_normalization_12 (Ba  (None, 859, 64)              256       ['conv1d_8[0][0]']            
 tchNormalization)                                                                                
                                                                                                  
 re_lu_12 (ReLU)             (None, 859, 64)              0         ['batch_normalization_12[0][0]
                                                                    ']                            
                                                                                                  
 conv1d_9 (Conv1D)           (None, 859, 128)             8320      ['re_lu_12[0][0]']            
                                                                                                  
 batch_normalization_13 (Ba  (None, 859, 128)             512       ['conv1d_9[0][0]']            
 tchNormalization)                                                                                
                                                                                                  
 re_lu_13 (ReLU)             (None, 859, 128)             0         ['batch_normalization_13[0][0]
                                                                    ']                            
                                                                                                  
 conv1d_10 (Conv1D)          (None, 859, 1024)            132096    ['re_lu_13[0][0]']            
                                                                                                  
 batch_normalization_14 (Ba  (None, 859, 1024)            4096      ['conv1d_10[0][0]']           
 tchNormalization)                                                                                
                                                                                                  
 re_lu_14 (ReLU)             (None, 859, 1024)            0         ['batch_normalization_14[0][0]
                                                                    ']                            
                                                                                                  
 conv1d_11 (Conv1D)          (None, 859, 256)             262400    ['re_lu_14[0][0]']            
                                                                                                  
 batch_normalization_15 (Ba  (None, 859, 256)             1024      ['conv1d_11[0][0]']           
 tchNormalization)                                                                                
                                                                                                  
 re_lu_15 (ReLU)             (None, 859, 256)             0         ['batch_normalization_15[0][0]
                                                                    ']                            
                                                                                                  
 dropout (Dropout)           (None, 859, 256)             0         ['re_lu_15[0][0]']            
                                                                                                  
 conv1d_12 (Conv1D)          (None, 859, 128)             32896     ['dropout[0][0]']             
                                                                                                  
 batch_normalization_16 (Ba  (None, 859, 128)             512       ['conv1d_12[0][0]']           
 tchNormalization)                                                                                
                                                                                                  
 re_lu_16 (ReLU)             (None, 859, 128)             0         ['batch_normalization_16[0][0]
                                                                    ']                            
                                                                                                  
 dropout_1 (Dropout)         (None, 859, 128)             0         ['re_lu_16[0][0]']            
                                                                                                  
 conv1d_13 (Conv1D)          (None, 859, 1)               129       ['dropout_1[0][0]']           
                                                                                                  
==================================================================================================
Total params: 3127013 (11.93 MB)
Trainable params: 3115621 (11.89 MB)
Non-trainable params: 11392 (44.50 KB)
__________________________________________________________________________________________________
…
