…
Y train: (249121, 1053, 1)
X train: (249121, 1053, 4)


Model: "PointNet_omicron"
__________________________________________________________________________________________________
Layer (type)                    Output Shape         Param #     Connected to                     
==================================================================================================
input (InputLayer)              [(None, 1053, 4)]    0                                            
__________________________________________________________________________________________________
t_dist_0 (TimeDistributed)      (None, 1053, 32)     160         input[0][0]                      
__________________________________________________________________________________________________
activation_0 (Activation)       (None, 1053, 32)     0           t_dist_0[0][0]                   
__________________________________________________________________________________________________
t_dist_1 (TimeDistributed)      (None, 1053, 64)     2112        activation_0[0][0]               
__________________________________________________________________________________________________
activation_1 (Activation)       (None, 1053, 64)     0           t_dist_1[0][0]                   
__________________________________________________________________________________________________
t_dist_2 (TimeDistributed)      (None, 1053, 64)     4160        activation_1[0][0]               
__________________________________________________________________________________________________
activation_2 (Activation)       (None, 1053, 64)     0           t_dist_2[0][0]                   
__________________________________________________________________________________________________
block_2_masked (Lambda)         (None, 1053, 64)     0           activation_2[0][0]               
                                                                 input[0][0]                      
__________________________________________________________________________________________________
tnet_0_MaxPool (MaxPooling1D)   (None, 1, 64)        0           block_2_masked[0][0]             
__________________________________________________________________________________________________
tnet_0_dense_0 (Dense)          (None, 1, 64)        4160        tnet_0_MaxPool[0][0]             
__________________________________________________________________________________________________
tnet_0_dense_1 (Dense)          (None, 1, 32)        2080        tnet_0_dense_0[0][0]             
__________________________________________________________________________________________________
pre_matrix_0 (Dense)            (None, 1, 16)        528         tnet_0_dense_1[0][0]             
__________________________________________________________________________________________________
matrix_0 (Reshape)              (None, 4, 4)         0           pre_matrix_0[0][0]               
__________________________________________________________________________________________________
matrix_multiply_0 (Lambda)      (None, 1053, 4)      0           input[0][0]                      
                                                                 matrix_0[0][0]                   
__________________________________________________________________________________________________
t_dist_3 (TimeDistributed)      (None, 1053, 32)     160         matrix_multiply_0[0][0]          
__________________________________________________________________________________________________
activation_3 (Activation)       (None, 1053, 32)     0           t_dist_3[0][0]                   
__________________________________________________________________________________________________
t_dist_4 (TimeDistributed)      (None, 1053, 32)     1056        activation_3[0][0]               
__________________________________________________________________________________________________
activation_4 (Activation)       (None, 1053, 32)     0           t_dist_4[0][0]                   
__________________________________________________________________________________________________
t_dist_5 (TimeDistributed)      (None, 1053, 256)    8448        activation_4[0][0]               
__________________________________________________________________________________________________
activation_5 (Activation)       (None, 1053, 256)    0           t_dist_5[0][0]                   
__________________________________________________________________________________________________
t_dist_6 (TimeDistributed)      (None, 1053, 256)    65792       activation_5[0][0]               
__________________________________________________________________________________________________
activation_6 (Activation)       (None, 1053, 256)    0           t_dist_6[0][0]                   
__________________________________________________________________________________________________
t_dist_7 (TimeDistributed)      (None, 1053, 512)    131584      activation_6[0][0]               
__________________________________________________________________________________________________
activation_7 (Activation)       (None, 1053, 512)    0           t_dist_7[0][0]                   
__________________________________________________________________________________________________
block_7_masked (Lambda)         (None, 1053, 512)    0           activation_7[0][0]               
                                                                 input[0][0]                      
__________________________________________________________________________________________________
tnet_1_MaxPool (MaxPooling1D)   (None, 1, 512)       0           block_7_masked[0][0]             
__________________________________________________________________________________________________
tnet_1_dense_0 (Dense)          (None, 1, 512)       262656      tnet_1_MaxPool[0][0]             
__________________________________________________________________________________________________
tnet_1_dense_1 (Dense)          (None, 1, 512)       262656      tnet_1_dense_0[0][0]             
__________________________________________________________________________________________________
pre_matrix_1 (Dense)            (None, 1, 1024)      525312      tnet_1_dense_1[0][0]             
__________________________________________________________________________________________________
matrix_1 (Reshape)              (None, 32, 32)       0           pre_matrix_1[0][0]               
__________________________________________________________________________________________________
matrix_multiply_1 (Lambda)      (None, 1053, 32)     0           activation_4[0][0]               
                                                                 matrix_1[0][0]                   
__________________________________________________________________________________________________
t_dist_8 (TimeDistributed)      (None, 1053, 128)    4224        matrix_multiply_1[0][0]          
__________________________________________________________________________________________________
activation_8 (Activation)       (None, 1053, 128)    0           t_dist_8[0][0]                   
__________________________________________________________________________________________________
t_dist_9 (TimeDistributed)      (None, 1053, 256)    33024       activation_8[0][0]               
__________________________________________________________________________________________________
activation_9 (Activation)       (None, 1053, 256)    0           t_dist_9[0][0]                   
__________________________________________________________________________________________________
t_dist_10 (TimeDistributed)     (None, 1053, 512)    131584      activation_9[0][0]               
__________________________________________________________________________________________________
activation_10 (Activation)      (None, 1053, 512)    0           t_dist_10[0][0]                  
__________________________________________________________________________________________________
block_10_masked (Lambda)        (None, 1053, 512)    0           activation_10[0][0]              
                                                                 input[0][0]                      
__________________________________________________________________________________________________
global_maxpool (MaxPooling1D)   (None, 1, 512)       0           block_10_masked[0][0]            
__________________________________________________________________________________________________
mp_block (Lambda)               (None, None, 512)    0           global_maxpool[0][0]             
                                                                 input[0][0]                      
__________________________________________________________________________________________________
concatenation (Concatenate)     (None, 1053, 544)    0           mp_block[0][0]                   
                                                                 matrix_multiply_1[0][0]          
__________________________________________________________________________________________________
t_dist_12 (TimeDistributed)     (None, 1053, 544)    296480      concatenation[0][0]              
__________________________________________________________________________________________________
activation_12 (Activation)      (None, 1053, 544)    0           t_dist_12[0][0]                  
__________________________________________________________________________________________________
dropout (Dropout)               (None, 1053, 544)    0           activation_12[0][0]              
__________________________________________________________________________________________________
t_dist_13 (TimeDistributed)     (None, 1053, 500)    272500      dropout[0][0]                    
__________________________________________________________________________________________________
activation_13 (Activation)      (None, 1053, 500)    0           t_dist_13[0][0]                  
__________________________________________________________________________________________________
dropout_1 (Dropout)             (None, 1053, 500)    0           activation_13[0][0]              
__________________________________________________________________________________________________
t_dist_14 (TimeDistributed)     (None, 1053, 300)    150300      dropout_1[0][0]                  
__________________________________________________________________________________________________
activation_14 (Activation)      (None, 1053, 300)    0           t_dist_14[0][0]                  
__________________________________________________________________________________________________
dropout_2 (Dropout)             (None, 1053, 300)    0           activation_14[0][0]              
__________________________________________________________________________________________________
t_dist_15 (TimeDistributed)     (None, 1053, 100)    30100       dropout_2[0][0]                  
__________________________________________________________________________________________________
activation_15 (Activation)      (None, 1053, 100)    0           t_dist_15[0][0]                  
__________________________________________________________________________________________________
dropout_3 (Dropout)             (None, 1053, 100)    0           activation_15[0][0]              
__________________________________________________________________________________________________
last_tdist (TimeDistributed)    (None, 1053, 1)      101         dropout_3[0][0]                  
__________________________________________________________________________________________________
last_act (Activation)           (None, 1053, 1)      0           last_tdist[0][0]                 
==================================================================================================
Total params: 2,189,177
Trainable params: 2,189,177
Non-trainable params: 0
__________________________________________________________________________________________________


Train on 249121 samples, validate on 53383 samples
Epoch 1/30
Traceback (most recent call last):
…
